models/model_lstm_76f1.pt (torch, 391116 bytes, 10 tensors)

lstm.weight_ih_l0 f4 [256, 182]
000000 10 f8 af 3e 4c 15 01 3f 4b 58 e8 3e 6d 04 b1 3e
       0.34368944 0.5042312 0.45379862 0.3457369
000010 06 2c e6 3e 94 e9 d0 3e c7 b8 db 3e d8 ae e3 3e
       0.44955462 0.40803206 0.4291441 0.44469333
000020 b5 82 e4 3e c1 50 cd 3e c8 25 ec 3e f9 53 d6 3e
       0.44630972 0.40100673 0.46122575 0.4186094
000030 66 d2 04 3f e8 c4 f6 be 92 42 13 3f 3b 77 1c 3f
       0.5188354 -0.48197103 0.57523453 0.6111943
000040 9e eb 09 3f e4 14 26 3f 2d 64 10 3f 43 38 2b 3f
       0.5387515 0.64875627 0.56402856 0.66882724
000050 e8 ad 0d 3f ec 79 3f 3f fe 9d 17 3f 12 d4 1e 3f
       0.55343485 0.74795413 0.5922545 0.62042344
000060 5d 85 d2 3e 83 32 e7 3e 40 67 f9 3e 53 24 2a 3f
       0.41117373 0.45155725 0.48711586 0.66461676
000070 d7 bc 01 3f 16 1e f0 3e 18 fe 15 3f f3 56 fd 3e
       0.5067877 0.46897954 0.5859084 0.494804
000080 a6 54 20 3f d1 0a 08 3f c2 78 e8 3e 7b bc 12 3f
       0.62629163 0.53141505 0.4540463 0.5731885
000090 56 41 0c 3f 8e 56 e8 3e fe 5a 0e 3f 30 45 88 3e
       0.54787195 0.45378536 0.55607593 0.26615286
0000a0 b7 d0 a1 3e e4 53 f3 3e a5 0d 07 3f 83 58 12 3f
       0.3160455 0.4752494 0.52755195 0.5716631
0000b0 79 13 c4 3e 20 b7 f9 3e 9d e7 fa 3e bd 73 c8 3e
       0.38296106 0.48772526 0.49004832 0.391508
0000c0 b9 19 71 3e 14 a2 92 3e 45 74 d7 3e cc 12 eb 3e
       0.23544969 0.2863928 0.42080894 0.45912778
0000d0 19 37 dc 3e f9 c0 9d 3e 3e 4f 9d 3e f0 83 88 3e
       0.43010786 0.3081129 0.3072452 0.2666316
0000e0 97 75 36 3e 12 45 19 3c ca bb 71 3e 43 8b 9f 3e
       0.17818294 0.009354847 0.23606792 0.31160936
0000f0 b8 55 8c 3e d2 d0 a3 3e 85 18 ab 3e 57 63 cc 3e
       0.27409148 0.31995255 0.33417144 0.3991954
000100 ff 5a d4 3e 30 a7 08 3f 84 a4 a7 3e e0 0a ad 3e
       0.41475675 0.5338011 0.32742703 0.3379736
000110 e8 61 aa 3e cd 40 df 3e 42 7d fc 3e cb cd cd 3e
       0.33277822 0.43604127 0.49314314 0.4019607
000120 18 34 b8 3e 40 3f a2 3e 9e 27 cd 3e bd e5 b6 3e
       0.35977244 0.3168888 0.40069288 0.3572215
000130 91 a7 c9 3e 56 ce 04 3f 96 96 da 3e f6 b7 ac 3e
       0.39385656 0.51877344 0.42693013 0.337341
000140 2b ac b6 3e cf 15 ab 3e f4 f5 08 3f c3 8a cb 3e
       0.3567823 0.33415076 0.53500295 0.39754304
000150 9e 69 e2 3e 31 e2 c3 3e 25 35 d7 3e ae 66 fe 3e
       0.44221205 0.38258508 0.42032734 0.49687713
000160 40 31 a2 3e d3 22 0b 3f dd 03 a2 3e 8f 37 0c 3f
       0.316782 0.5435001 0.31643572 0.54772276
000170 52 ca ab 3e 59 73 d3 3e 69 2c e9 3e aa a6 09 3f
       0.33552796 0.4129894 0.45541695 0.53769934
000180 52 af 02 3f 31 53 05 3f 68 51 bb 3e 7d 0e ae 3e
       0.5104877 0.52080065 0.36585546 0.3399543
000190 ce 18 e1 3e 81 78 c1 3e 49 7f ad 3e 70 84 99 3e
       0.43964237 0.3778725 0.33886173 0.29983854
0001a0 b5 2a d1 3e 9f ee b2 3e aa ef e8 3e df 2a bd 3e
       0.40852895 0.34947678 0.4549535 0.3694677
0001b0 6d 8c e1 3e 7b 0b b3 3e ab f4 f3 3e c9 43 0c 3f
       0.4405245 0.34969696 0.47647604 0.5479093
0001c0 b9 aa b2 3e 55 38 08 3f 16 0b 0b 3f 2b 8d e2 3e
       0.34895876 0.53210956 0.5431379 0.44248328
0001d0 f9 da e2 3e 58 46 d7 3e a3 0d f1 3e e1 17 ec 3e
       0.44307688 0.42045856 0.47080716 0.46111968
0001e0 cf c1 9f 3e 3a 4d a5 3e 9a 24 f2 3e 1c be d1 3e
       0.31202552 0.32285482 0.4729355 0.40965354
0001f0 f4 62 d2 3e 22 ff c9 3e f8 a6 b3 3e bb a6 04 3f
       0.4109112 0.39452463 0.35088325 0.5181691
000200 2a 68 fe 3e 9d e1 a2 3e 80 b1 07 3f 89 49 04 3f
       0.49688846 0.31812754 0.5300522 0.51674706
000210 30 f6 cd 3e 75 0b f3 3e 23 b7 cf 3e 98 94 b3 3e
       0.4022689 0.4746968 0.4056941 0.35074306
000220 e3 ba b5 3e 12 50 c3 3e 15 3b d1 3e 0c 5e c4 3e
       0.35494146 0.38147026 0.4086539 0.38353002
000230 08 49 eb 3e 6a 07 04 3f 3b 64 04 3f 76 41 a8 3e
       0.45954156 0.5157381 0.5171544 0.32862443
000240 e2 84 09 3f 19 08 f2 3e c7 c9 c1 3e f8 88 a5 3e
       0.5371839 0.47271803 0.37849256 0.3233106
000250 75 8f a5 3e d1 e5 09 3f bc 0e ae 3e a7 da d4 3e
       0.32336012 0.53866297 0.33995616 0.41573068
000260 76 ca 09 3f 1d 23 bd 3e 37 56 cd 3e 87 ad 01 3f
       0.53824556 0.36940852 0.4010484 0.50655407
000270 7f 46 b2 3e 44 18 9b 3e b2 a9 b1 3e 67 e6 03 3f
       0.3481941 0.3029195 0.3469978 0.5152344
000280 11 37 d1 3e ff 5f d4 3e d6 99 d3 3e 8a 17 ae 3e
       0.40862325 0.4147949 0.41328305 0.34002334
000290 c5 df b3 3e 96 c9 db 3e f4 b3 ed 3e 52 c5 d8 3e
       0.3513166 0.42927235 0.46426356 0.42338043
0002a0 0a 58 08 3f 6e 75 dd 3e 15 71 ca 3e f3 88 bb 3e
       0.53259337 0.43253654 0.395394 0.3662792
0002b0 e0 01 c6 3e 68 f6 9d 3e d3 6b af 3e 93 2f b9 3e
       0.38673306 0.30852056 0.3426195 0.3616911
0002c0 3d 59 e1 3e 0a d5 da 3e 75 1e ad 3e 4f 67 c1 3e
       0.44013396 0.4274066 0.338123 0.3777413
0002d0 c1 fb f6 3e e4 e9 04 3f 4c 9b 8e 3e 54 ed 08 3f
       0.48238948 0.5191939 0.27852857 0.53487134
0002e0 a7 a6 d5 3e 51 d0 ec 3e 0e a0 f3 3e 2a 9a 08 3f
       0.41728708 0.46252683 0.4758305 0.53360236
0002f0 b6 b4 ac 3e c3 31 8f 3e 38 70 cc 3e f9 ce d5 3e
       0.33731622 0.27967653 0.39929366 0.4175947
000300 81 37 e7 3e 8d ce a9 3e 3e 42 05 3f 00 d6 ec be
       0.45159534 0.33165398 0.520542 -0.4625702
000310 25 2f fd 3d d8 5e 14 3f 3e c3 1d 3f 73 51 ef 3e
       0.12362508 0.5795722 0.6162604 0.46741828
000320 7d fa 4d 3e 6f e9 f8 3d 2e 6e fe 3e cc 07 10 3f
       0.20115085 0.12153899 0.49693435 0.562619
000330 07 64 00 3f a9 dc 09 3f db 01 32 3f 8c 40 53 3f
       0.5015263 0.53852326 0.6953408 0.82520366
000340 8a 33 8f 3f 7d 2a 80 3f 0a d3 1f 3f 9d 4d 55 be
       1.1187603 1.0012966 0.62431395 -0.20830388
000350 90 66 ac be 8c 3e d7 be 6f 66 c9 bc 47 35 d5 3e
       -0.33672 -0.42039907 -0.024584977 0.4164221
000360 23 ac 31 3f f6 9b ee 3e ad a6 0f 3f 42 d1 8b 3e
       0.69403285 0.46603364 0.561137 0.2730809
000370 a3 44 42 bd 4c 37 1f be 6b be 4a 3e 5a da c4 3e
       -0.04742874 -0.15548438 0.19799201 0.3844784
000380 54 04 b5 3e ae a8 87 3e 6a 3c 37 3e ae 56 a4 3d
       0.35354865 0.2649588 0.1789414 0.08024345
000390 36 90 f2 bd 4b 58 6c be 6f 3d b2 be f8 2b 87 3d
       -0.11843912 -0.23080556 -0.34812495 0.06600183
0003a0 2b 7d 75 3e 28 71 22 3f 13 b8 30 3f 34 7b 90 3e
       0.23973529 0.6345391 0.69030875 0.28218997
0003b0 59 f8 74 3d 67 9e eb bb d8 82 43 3e de 0b ab 3d
       0.059807155 -0.007190514 0.19092882 0.08351873
0003c0 26 bb 85 3e 35 f6 6e 3e 9b 4c 74 3e 3a b6 0a 3e
       0.26119345 0.23336108 0.23857348 0.13546076
0003d0 8c c4 85 3e f1 b6 cc 3e 2e 84 c9 3e a7 2c f8 3e
       0.26126516 0.39983323 0.39358658 0.48471567
0003e0 be 61 bd 3e a8 40 83 3e 36 15 aa 3e 93 80 f1 3e
       0.36988634 0.25635266 0.33219308 0.47168407
0003f0 f6 81 76 3e fd 4f da 3e 37 0e eb 3e 89 6b 9d 3e
       0.24073014 0.4263915 0.45909283 0.30746105

lstm.weight_hh_l0 f4 [256, 64]
000000 34 86 bd 3d 24 69 1f 3d 00 93 36 bc d4 1c 45 bd
       0.09254113 0.03891863 -0.011143446 -0.048123196
000010 de bb 90 bd c0 43 4e bc 80 73 f6 3d 60 16 98 bb
       -0.07067083 -0.012589395 0.120337486 -0.004641339
000020 1a 0a dd bd a8 be ec bc 86 2f d7 bd c8 5c 28 3d
       -0.10792942 -0.028899506 -0.10507111 0.041104108
000030 c0 ed 3e bc 9c 3b 98 bd f0 28 00 3d d6 53 fa bd
       -0.011653364 -0.074332446 0.03128904 -0.12223022
000040 88 40 e0 bd 84 7b 0b 3d c0 1f 21 bd c0 58 3b 3c
       -0.10949808 0.03405334 -0.03933692 0.011434734
000050 a0 36 f0 3b a8 5e 41 bd 98 02 d1 3c 22 79 c7 bd
       0.0073307306 -0.04720941 0.025513932 -0.09739901
000060 1a 57 cc 3d e0 0a 21 3d 3a 06 b6 bd e0 5f 20 bd
       0.09977551 0.03931701 -0.088879064 -0.039153934
000070 b0 6c 0b bd 08 b0 f2 bc 60 cf 68 bd f4 65 6c bd
       -0.0340392 -0.029624954 -0.056838393 -0.057714418
000080 4c ec 74 3d 1a d7 df 3d 60 75 a5 3b 6c d1 5a bd
       0.059795663 0.10929699 0.0050493926 -0.053422377
000090 d0 c8 be 3c d0 f0 05 3c 16 62 d0 3d d0 6b 38 3c
       0.023289114 0.00817509 0.101749584 0.011256173
0000a0 2a 81 f9 3d 02 5d a0 3d 4c 82 6f 3d 00 17 17 bc
       0.12182839 0.0783024 0.05847387 -0.009221792
0000b0 b0 2f e8 3d 34 6d 7f bd 28 5e e8 3d f8 80 a4 bc
       0.11337221 -0.062360004 0.11346084 -0.020081028
0000c0 20 30 de bd c8 2b e5 bc 80 02 8e bd 2e 0a 82 3d
       -0.10849023 -0.027974978 -0.069340706 0.06349598
0000d0 f6 1e e9 bd 20 86 94 bc b0 d0 87 3d 6e d5 a3 bd
       -0.113828585 -0.018130362 0.06631601 -0.07999693
0000e0 22 15 b1 bd 90 f2 a6 bd ec 90 6c bd 58 00 ac 3c
       -0.08646609 -0.08151734 -0.057755396 0.020996258
0000f0 78 b7 8f 3d fc 1b b4 3d 0c 91 b9 bd 00 6a 53 bb
       0.07017416 0.087944 -0.090608686 -0.0032259226
000100 fc 9c 28 bd 54 aa a6 3d d6 1e 83 3d c0 a2 db 3b
       -0.041165337 0.08137956 0.06402366 0.006702751
000110 80 c1 92 3c ec 91 bd 3d 04 21 98 bd 5a e0 d5 bd
       0.017914534 0.09256348 -0.07428172 -0.10443182
000120 e4 e4 a1 3d 68 db c4 3c 50 4d 10 3c 94 99 8a 3d
       0.079049855 0.024030402 0.008807495 0.06767574
000130 38 95 cc 3c cc 4b c6 3d 68 c4 d3 bd ce 65 c2 bd
       0.024973497 0.09682426 -0.10340196 -0.09492074
000140 98 83 21 bd 8c 56 2f 3d e4 38 d8 bd 60 b2 8f 3b
       -0.03943214 0.042807147 -0.10557726 0.0043852776
000150 a2 f1 ca bd 30 8b 28 bd b8 46 57 3d 3c f3 df 3d
       -0.09909369 -0.041148365 0.052557677 0.10935065
000160 ce be 9b 3d b8 8b 77 3d c0 64 5e 3b 80 89 42 bc
       0.076047525 0.06043598 0.0033934563 -0.011873603
000170 08 6f c8 bd 40 5f 77 3b b0 15 5d 3d 74 f9 af 3d
       -0.097868025 0.0037745982 0.05397576 0.08592501
000180 ea 0a af bd 32 a8 df 3d 00 47 f1 3c 48 23 94 bc
       -0.085470036 0.109207526 0.0294528 -0.01808323
000190 b2 58 b6 bd 1e 3d a1 3d b0 35 c6 3c 88 83 ea bc
       -0.08903636 0.07872985 0.024195522 -0.028627172
0001a0 60 cf 9c bd 20 9d 7f 3d 00 0f a9 ba 8c 5a b2 bd
       -0.07656741 0.062405705 -0.0012898147 -0.08708677
0001b0 04 8f 22 bd ba b4 d8 3d 72 72 ca bd d4 44 6b bd
       -0.03968717 0.10581346 -0.0988511 -0.057438686
0001c0 ac 31 8b bd ee 9f bb bd c0 49 43 3d 00 64 5d 39
       -0.067965835 -0.091613635 0.047677755 0.00021113455
0001d0 ac aa 85 bd 00 7a 9e b9 c2 51 a4 bd cc 6d 4a 3d
       -0.06526694 -0.00030227005 -0.080234066 0.049421117
0001e0 98 81 3e 3d 98 8c ff bd 04 cd dd 3d f8 89 1d 3d
       0.04651031 -0.12477988 0.10830119 0.038461655
0001f0 0c a6 0a 3d 5a dc 89 3d e8 fe 6f bd 66 fe 95 bd
       0.03384976 0.06731482 -0.058592707 -0.07323913
000200 38 89 57 bd 40 a2 6a 3b da 12 91 3d 20 15 2a 3c
       -0.052621096 0.0035802275 0.07083674 0.010381013
000210 a0 8f a5 3d dc 11 eb bd dc b9 7a bd 08 a6 9d bc
       0.08084035 -0.11478016 -0.061212406 -0.019244209
000220 70 fd 71 bd e8 18 91 3c c4 32 ca bd 56 a7 90 bd
       -0.059079587 0.017712072 -0.09872964 -0.07063167
000230 58 45 b8 bc 92 00 8e bd 0e 08 8c bd e0 51 15 bd
       -0.022494003 -0.069337025 -0.06837474 -0.036455035
000240 88 ce ac bc 7e 0f ba 3d 20 2b 6f 3d 50 d6 dd bc
       -0.021094576 0.09084986 0.058390737 -0.027079731
000250 14 cd 8c bd fa fc b9 bd 4c c2 78 3d 12 a9 f0 bd
       -0.06875053 -0.090814546 0.06073217 -0.117509976
000260 34 34 64 bd dc 4d 42 3d 30 1c 23 bd 04 aa 6a 3d
       -0.055713847 0.047437534 -0.039821804 0.057291046
000270 c0 84 41 bd 82 91 80 3d f4 97 74 3d d4 81 0e bd
       -0.04724574 0.062777534 0.059715226 -0.034791782
000280 aa e0 8a bd b8 a3 f7 bd c8 40 a9 3c 10 ed 3e bc
       -0.067811325 -0.12091774 0.020660773 -0.0116532
000290 80 70 5c bb 5c d4 8a 3d 14 f8 d9 3d d6 ec fc bd
       -0.003363639 0.067787856 0.1064302 -0.1234986
0002a0 3e 05 cf bd 78 ff bf 3c 68 4b fe bd 26 a0 df bd
       -0.10108422 0.023437247 -0.12416726 -0.10919218
0002b0 a4 66 0c bd ca cb b2 3d 8e 64 cd 3d e0 eb e8 bc
       -0.034277573 0.08730276 0.10028945 -0.028432786
0002c0 1c e0 f6 3d 56 29 ee 3d 98 8a 7a 3d 50 6e 1f 3c
       0.12054464 0.11628978 0.06116733 0.00973089
0002d0 e0 59 af 3c 3c d6 59 3d ce 25 97 3d d0 a2 55 3d
       0.02140516 0.053182825 0.073802575 0.052157223
0002e0 d6 69 d7 3d 10 16 18 3c 9c 8e cf bd 58 29 84 3c
       0.105182335 0.009282604 -0.101346225 0.016132995
0002f0 04 05 58 bd 9c 41 8c 3d fe 36 9c bd ac 84 69 3d
       -0.05273916 0.068484515 -0.076276764 0.05701129
000300 38 47 b7 3d 74 de 80 3d 10 7d de 3d 80 4a 7c bb
       0.08949131 0.062924296 0.108636975 -0.0038496554
000310 44 5a 05 bd c8 8c f1 bc 80 d6 a0 3d 6c 9d 63 3d
       -0.032556787 -0.029486075 0.07853413 0.05557005
000320 66 a8 af bd 78 fb bd 3c a0 75 88 3c 70 de ed bc
       -0.08577041 0.023191199 0.01665765 -0.02903673
000330 28 c1 95 bc 7a f2 af bd a0 df 94 3d 36 c0 e9 3d
       -0.01828058 -0.085911706 0.072692156 0.114136145
000340 bc 12 6e bd ae db e7 3d 58 bb f0 3d 46 7b e2 bd
       -0.058123335 0.113211975 0.11754483 -0.11058669
000350 50 e9 17 bc 00 84 61 bb 74 26 fe bd d4 5f 84 bd
       -0.009271935 -0.0034410954 -0.12409678 -0.0646359
000360 d8 38 8e 3c b8 ab 17 bd 4e 5e 84 3d 64 51 65 3d
       0.01736109 -0.037028998 0.064633 0.055985823
000370 22 e2 a0 3d c0 ba 80 bd fc aa a0 bd 40 fe fd 3d
       0.078556314 -0.0628562 -0.07845113 0.1240201
000380 00 b5 50 3a c0 27 c7 bd c4 2a 26 bd 86 2b ae bd
       0.00079615414 -0.097243786 -0.04056813 -0.08504395
000390 9c f0 e7 bd 04 00 d0 bd 58 19 c4 3d a0 74 a8 bc
       -0.113251895 -0.10156253 0.095751464 -0.020563424
0003a0 e8 64 d8 bd 22 8c f0 bd e0 63 8e 3c e4 d8 3f bd
       -0.10566121 -0.11745478 0.017381608 -0.046837702
0003b0 ac 77 8e bd 94 f3 34 3d 18 c3 fa 3c a8 43 34 3d
       -0.06956419 0.044177607 0.030610606 0.044009835
0003c0 50 31 56 3c 76 15 88 bd b4 05 cb 3d 0a a1 8f bd
       0.01307328 -0.06644718 0.09913197 -0.07013138
0003d0 16 87 87 3d 46 fe ee bd 38 95 70 bd f8 90 4b bd
       0.066175625 -0.116695926 -0.058736056 -0.0496988
0003e0 e8 76 65 3d 08 c5 17 3d 34 ca 72 bd 00 d6 56 3b
       0.0560216 0.037053138 -0.059274867 0.0032781363
0003f0 78 a9 d6 3d 94 5d b4 3d 96 18 f4 bd 3c 2a 64 3d
       0.10481542 0.08806911 -0.11918752 0.05570434

lstm.bias_ih_l0 f4 [256]
000000 92 5c 04 3f af f5 cb 3e b5 96 a1 bb 90 12 ff 3d
       0.5170375 0.3983588 -0.0049312958 0.124547124
000010 a2 e1 d2 3e c0 50 3a 3d 2e ee 0f 3f 93 ec c4 3e
       0.4118777 0.045487165 0.5622281 0.38461742
000020 62 d8 97 3d 7b d8 a5 3e 75 92 70 3e 60 12 0d 3e
       0.074143186 0.32391724 0.23493369 0.13776541
000030 bc b4 8b 3e e8 6f 8c 3e 7f 82 dd 3d dd 5c 29 3e
       0.27286327 0.27429128 0.10815906 0.16539331
000040 2b 4c b8 3e 44 be 03 3f 91 8b 3a 3e dd 04 00 3f
       0.35995612 0.514622 0.18217303 0.5000742
000050 92 fe 95 3e fe 9e e1 3e 10 d4 02 3c 08 04 40 3e
       0.29295784 0.44066614 0.00798513 0.18751538
000060 bd 85 d1 3e 4d 2e 49 3d 70 fc 2d 3d 7a e9 1d 3e
       0.40922347 0.04911642 0.04247707 0.15421095
000070 34 bc 10 3f b2 ea 26 3e 54 11 32 bd 4d 1d ad 3e
       0.56537175 0.16300467 -0.043473557 0.33811417
000080 fc 33 81 3e 39 64 59 3e 62 fb f0 3e f6 67 06 3f
       0.25234973 0.21229638 0.4706679 0.5250238
000090 cc d2 8b 3d ca 32 74 3e 7d dd b8 3e 1c b0 6c 3e
       0.06827316 0.238475 0.36106482 0.23114055
0000a0 81 3c 06 3f 51 7b b1 3e ad ac c6 3e 7c 78 00 3f
       0.5243607 0.34664395 0.38803616 0.50183845
0000b0 9f 8d 92 3e 16 5a f3 3e 37 68 99 3e fa ba f0 3e
       0.28623673 0.47529668 0.29962322 0.47017652
0000c0 1f 5c a4 3d 34 f1 dc 3e e2 8c 93 3e 1c 8c bc 3e
       0.08025383 0.43152773 0.28818423 0.36825645
0000d0 52 78 19 3f e4 77 c4 3e 0d ba f1 3d ad ae 05 3f
       0.5994922 0.3837272 0.118030645 0.5221966
0000e0 3c 9e d0 3e 8d 6a c5 3e 39 aa a3 3e 98 f9 88 3e
       0.40745723 0.38557854 0.31965807 0.26752925
0000f0 56 8d ce 3e 14 99 99 3e f5 12 04 be 62 c3 91 3e
       0.40342206 0.29999602 -0.12897857 0.28469378
000100 76 43 da bd 88 16 3b 3d 30 e9 99 3d cc 4a 13 3d
       -0.106573984 0.045675784 0.0751518 0.035960004
000110 e4 60 41 bd 76 bc 8e 3d bc 7f 56 3d ee 04 91 3d
       -0.047211543 0.0696954 0.05236791 0.070810184
000120 e4 da 82 bd d4 6d 59 bd 80 72 f3 ba f2 b6 bf 3d
       -0.06389406 -0.053083256 -0.0018573552 0.09361066
000130 00 d8 12 3d 00 57 36 3d 18 5f e1 3d ec 7b 2a 3d
       0.035850525 0.044516563 0.11004466 0.041622087
000140 80 97 62 bb 30 84 17 3c 26 19 88 3d 40 68 b4 bb
       -0.0034575164 0.009247825 0.06645422 -0.0055055916
000150 12 b3 d2 bd 80 b6 6a 3b 1c 81 82 bd c0 9e 02 3b
       -0.10288061 0.0035814345 -0.06372282 0.0019931048
000160 14 c5 8d 3d 96 99 ff 3d 12 86 b8 3d 40 6d c0 3b
       0.06922355 0.12480466 0.09009947 0.0058723986
000170 b8 98 50 3d a6 64 90 3d 70 9f d5 bd 70 2e 39 bc
       0.050926894 0.07050447 -0.10430801 -0.0113025755
000180 00 e8 b9 b8 e0 df e8 bd 68 db c9 bc e8 97 c2 bd
       -8.864701e-05 -0.11370826 -0.024640754 -0.0950163
000190 a8 a6 a0 3c 70 cb 94 3d ba dd a6 bd 58 5e 80 3d
       0.019610718 0.07265365 -0.0814776 0.06267995
0001a0 c4 29 27 bd 34 ab 9a bd c8 5c 4e 3d cc 9e 59 bd
       -0.040811315 -0.07552186 0.05038145 -0.053129956
0001b0 48 c0 71 bd e0 90 f0 3d 00 0c b6 3b 1c a0 4c bd
       -0.059021264 0.11746383 0.0055556297 -0.04995738
0001c0 7c 93 59 3d cc 56 72 3d fe 30 b7 bd 04 c7 37 3d
       0.053119168 0.059164807 -0.089448914 0.04486753
0001d0 ea 42 ec 3d 70 1f ec bd ee cb 97 bd fa 8f dd bd
       0.115362 -0.11529434 -0.074119434 -0.10818477
0001e0 78 02 c1 3c f2 a8 c4 bd 00 81 e0 ba e0 39 2e 3c
       0.023560748 -0.09602536 -0.0017128289 0.010633916
0001f0 ca a6 d6 3d 8c d2 e4 bd 28 00 a2 3d 88 1e e2 bc
       0.10481031 -0.11172971 0.07910186 -0.027602449
000200 42 0c dd bd 5a 14 0b 3d b1 ab 83 3d 87 65 4f 3c
       -0.107933536 0.033954956 0.06429232 0.012658483
000210 2b 88 3f 3d aa 99 24 3e 5d fd 27 3e 39 38 cf bd
       0.04676072 0.16074243 0.16405244 -0.101181455
000220 32 c7 d9 3d 09 da 30 3d dd 9f b0 3d 5e 04 15 be
       0.106336966 0.043176685 0.086242415 -0.14552447
000230 b3 9f 5f bd 5a 9f 02 bd a5 a2 da bb b0 29 8a bd
       -0.05459566 -0.03189025 -0.006672221 -0.067462325
000240 a6 09 4d be ec 24 ed 3c 7c df e9 bd c9 f8 f4 3b
       -0.20023212 0.02894827 -0.114195794 0.0074759466
000250 ff e5 ae bb 62 19 09 be c3 16 0f be 33 2f 9d bd
       -0.0053374763 -0.13388589 -0.13973527 -0.07675018
000260 3d d2 94 3c 7f 03 05 bd 91 e7 e5 bd 99 ca 76 be
       0.018166656 -0.032474037 -0.112258084 -0.24100722
000270 82 4c 61 bb 21 c1 a6 3d 5c 12 08 bd fe d1 9b bd
       -0.0034377878 0.08142305 -0.033220634 -0.07608412
000280 f5 44 cc bd 37 ba e4 bc c7 b2 a7 3d 87 cd 21 3d
       -0.0997409 -0.027920825 0.08188396 0.039502647
000290 e4 9d 26 3d f5 6e 30 bd 5d 13 38 bd 79 1f 04 3d
       0.04067792 -0.043074567 -0.04494034 0.032256577
0002a0 e4 33 63 3d 59 97 a9 bd 76 49 73 bd 10 77 77 bc
       0.05546941 -0.082808204 -0.05939623 -0.01510407
0002b0 4e 6f b5 bd 15 43 01 bc 35 f5 9b 3d 34 2a b9 bc
       -0.0885912 -0.007889529 0.07615129 -0.022603132
0002c0 31 9c 89 3c 94 4f 5c bc 15 68 2d be d5 ff a9 bd
       0.01679811 -0.013446707 -0.16934235 -0.08300749
0002d0 63 f3 b0 bd d1 12 3e bd 54 81 94 3d 8d f2 c0 3c
       -0.08640172 -0.046404663 0.0725123 0.023553157
0002e0 28 d6 4c bc cc 49 ab bd c8 44 f4 bc d7 e5 10 be
       -0.012502231 -0.08363685 -0.029817954 -0.14150177
0002f0 ff 80 d0 bb 3d 26 7a 3d 74 a9 f1 bd aa 91 ce 3b
       -0.006363034 0.061071623 -0.11799899 0.0063039856
000300 e7 45 4d 3e 75 48 f5 3d 66 67 ae 3d a8 1f 1f bd
       0.20046197 0.11976711 0.085158154 -0.03884855
000310 fa d6 ba 3e da b4 0c 3d 14 cd ea 3e 68 56 64 3e
       0.3649214 0.03435216 0.45859587 0.22298586
000320 32 49 19 3e 6a 01 a2 3e b8 f8 5e 3b 04 b1 92 3e
       0.14969328 0.31641704 0.003402276 0.28650677
000330 cc 39 87 3d b9 f9 6f 3e 17 9f 30 3e d1 54 e5 3e
       0.06602821 0.23435105 0.17248188 0.44791272
000340 2c 23 83 3e d9 1f bf 3d 51 a7 91 3d d9 f5 ef 3e
       0.25612772 0.09332246 0.07111991 0.46867254
000350 d6 ed 79 3e b6 9e 57 3e 62 8f 94 3c 95 26 01 3f
       0.24407133 0.21056637 0.018134777 0.50449497
000360 73 aa c6 3e 9d f5 fe 3d 59 e8 46 3e 70 6c 6d 3e
       0.38801917 0.12449191 0.19424571 0.23185897
000370 38 ca 0f 3f 25 97 1d 3e 9a b5 5b 3e 25 95 8f 3e
       0.56167936 0.15389688 0.21455994 0.28043476
000380 32 61 f4 3e a0 56 3c 3e 24 84 99 3e 6b 51 8d 3d
       0.47730404 0.1839242 0.29983628 0.06900295
000390 3f c9 26 3d 68 9b a5 3e a3 17 87 3e 11 55 7e 3e
       0.040719267 0.32345128 0.2638522 0.24837138
0003a0 58 b9 58 bc 8c 1b cd 3e ee 19 c5 3e 83 0e 00 be
       -0.013227783 0.4006008 0.38496345 -0.12505536
0003b0 e6 bf 80 3e 26 f5 d9 3e 68 83 96 3e d7 f7 e4 3e
       0.25146407 0.42569846 0.2939713 0.44720337
0003c0 fd 94 ed 3d b3 7b 31 3f 63 75 cf 3e 51 bd 9a 3e
       0.11600683 0.69329375 0.40519246 0.30222562
0003d0 b7 75 1d 3f 9e e8 5f 3e 29 51 45 3e cd 77 11 3f
       0.61507744 0.2186608 0.19269241 0.56823426
0003e0 62 df 97 3e d5 10 05 3e 43 6b f8 3e 90 7a 4b 3e
       0.29662615 0.12994702 0.48519334 0.19870973
0003f0 ca 91 02 3e a3 bd a2 3e 73 53 85 3e f2 d1 3f bb
       0.12750927 0.31785306 0.2604023 -0.0029269424

lstm.bias_hh_l0 f4 [256]
000000 76 48 e4 3e 3d 0e f8 3e e3 1f 27 3e 6d aa 4e 3e
       0.44586533 0.48448363 0.16320758 0.201822
000010 f8 a1 b3 3e 99 14 c7 3d cb df fb 3e bd c6 69 3e
       0.3508451 0.097207256 0.49194178 0.22829719
000020 cd e5 26 3e c1 c0 97 3e 69 43 02 3e 4b 03 92 3e
       0.162986 0.29639247 0.12721027 0.28518137
000030 10 84 8b 3e a2 72 b5 3d d4 b5 00 3c 67 17 b9 3e
       0.27249193 0.08859755 0.007855851 0.36150667
000040 ab 27 a6 3e 8c eb f2 3e cb 45 49 3e 50 5e f8 3e
       0.3245214 0.47445333 0.1965553 0.48509455
000050 1c 8c b4 3e 0b b1 ef 3e 46 32 81 3d f9 f2 5b 3e
       0.35263145 0.4681476 0.06308417 0.21479405
000060 fd c3 89 3e 8a 63 68 3e 96 e3 02 3e 11 bb 50 3e
       0.2690734 0.22694221 0.1278213 0.2038386
000070 30 39 20 3f 5b 21 7b 3e a2 80 ac 3d ec 45 53 3e
       0.6258726 0.24524443 0.08422972 0.20632142
000080 64 35 ac 3e 24 d3 9e 3e 7c 97 99 3e 97 83 18 3f
       0.33634484 0.31020463 0.29998386 0.5957579
000090 7f 19 16 3d 64 8a 55 3d 68 0d cc 3e 6f 5e c3 3d
       0.03664541 0.052133933 0.39853978 0.09539496
0000a0 24 4b dc 3e fd ed 00 3f 39 98 fe 3e de 6b 0a 3f
       0.43026078 0.5036314 0.49725512 0.5407084
0000b0 63 86 10 3e e9 01 aa 3e bb ed db 3e ff 0b ce 3e
       0.14113764 0.33204582 0.4295481 0.40243527
0000c0 bc d7 79 3e 7e 3e e7 3e da 9e cc 3e 0e b6 b9 3e
       0.24398702 0.45164865 0.39964944 0.3627171
0000d0 fe 3e 24 3f a2 74 b6 3e b6 9b 3f 3e bb 6e 13 3f
       0.6415862 0.3563586 0.18711743 0.57590836
0000e0 ed ba 68 3e 41 76 a1 3e 5f 4b e2 3e c3 68 30 3e
       0.22727557 0.31535533 0.4419813 0.17227463
0000f0 8b 93 d8 3e de 3e df 3e a3 2c 00 be 2f 66 e4 3e
       0.42300066 0.4360265 -0.12517028 0.4460921
000100 22 3c 97 3d f4 2f 73 bd d2 c4 d2 bd a0 f1 d2 3d
       0.07384516 -0.059371904 -0.10291447 0.102999926
000110 cc f9 11 3d d8 92 8a bd 70 61 6a 3d 4c dd d1 3d
       0.035638615 -0.067662895 0.05722183 0.10247287
000120 80 41 f0 3b 7c ab c8 bd 80 50 f0 bb 2c bb d1 3d
       0.007332027 -0.09798333 -0.007333815 0.10240778
000130 f8 82 d1 3c d0 06 c1 bc 86 9c 9a bd 88 31 fe 3d
       0.025575146 -0.023562819 -0.07549386 0.12411791
000140 20 2d df bc ce 91 a5 3d da cc 93 3d c4 3b 50 bd
       -0.027243197 0.08084451 0.07216807 -0.050838247
000150 ea 74 e9 bd 9e e3 eb bd c0 ba 55 bc 36 9b c7 3d
       -0.11399253 -0.11518024 -0.013045013 0.09746401
000160 66 a3 b7 3d 00 a2 b3 3c a8 d6 18 3d 4e 70 fb bd
       0.08966713 0.021927834 0.037314087 -0.1227728
000170 d0 bf eb bc 10 1d 41 bd 90 c9 f8 bc 26 4e e8 3d
       -0.028777987 -0.047146857 -0.03036955 0.11343031
000180 e8 0e 95 3c 78 7b 16 bd 7a be cb 3d 2e f3 a7 3d
       0.018195584 -0.036738843 0.0994844 0.0820068
000190 8c 3c 41 bd 70 32 39 bd a0 d3 59 3c 9c 41 2f bd
       -0.047176883 -0.045214117 0.013295084 -0.04278718
0001a0 26 d8 ab bd 00 66 5a 3d 30 1b c5 3c 3e 77 f7 bd
       -0.083908364 0.05331993 0.024060816 -0.120832905
0001b0 d0 24 1c bc c4 87 5c 3d 44 3f d6 bd 38 99 dc 3c
       -0.009530261 0.053840414 -0.10461286 0.02692853
0001c0 80 42 ee 3c fc 3e 6a 3d 40 3d dc bb f6 0d 82 3d
       0.029084444 0.057188973 -0.0067211688 0.06350319
0001d0 58 3b 8d 3c e4 30 f8 bd 2e db b4 3d b8 a6 f7 3d
       0.017240211 -0.121187 0.08830868 0.12092346
0001e0 8c cc 30 bd 80 f9 98 ba d2 c3 fb bd 40 09 f5 3b
       -0.04316382 -0.0011671036 -0.12293209 0.0074779093
0001f0 d8 de a9 3c 5e 20 e5 3d 3a ee fc bd 74 61 24 bd
       0.020736143 0.11187814 -0.123501256 -0.040132
000200 25 e1 9d ba 1c 3e 9b 3d cf 42 e6 3d 56 eb 0d 3c
       -0.0012045248 0.07580206 0.112432115 0.0086620655
000210 92 63 8b 3d f0 c9 30 bd 05 34 8b 3d be c0 4a bd
       0.06806101 -0.043161333 0.06797031 -0.04950022
000220 d2 11 10 3e 2e 91 98 bd eb 82 0b bd c3 7d 08 be
       0.14069298 -0.07449566 -0.0340604 -0.13329224
000230 be 14 9d 3d 4e 41 11 bd 2a cd ae bc da 98 4f 3d
       0.07669972 -0.03546267 -0.021338064 0.05068288
000240 53 80 3b be a7 c7 1f be 1a e0 b2 3c 01 38 cd bd
       -0.1831067 -0.15603505 0.021835376 -0.100204475
000250 aa b5 b7 bd 38 01 ec bc c9 5b 0d bd 4d 1a 47 bc
       -0.089701965 -0.028809175 -0.03451136 -0.012152267
000260 b9 7c 5d 3d ce 40 8b 3c 52 d1 17 be ba de 5e be
       0.054074023 0.016998675 -0.14825943 -0.21764651
000270 0e 40 1e 3d fb 17 93 3d f7 6c 0b be a4 ab 4a bd
       0.038635306 0.07182308 -0.13615786 -0.049480096
000280 9c 5f a5 bc c6 d7 ca bc 1d d9 3a bd ca a5 e6 bc
       -0.020187192 -0.024761092 -0.04561721 -0.028155226
000290 9a e2 a3 bd ce 26 d7 3d c3 c1 c7 bd 95 ee 20 3d
       -0.08002205 0.10505448 -0.09753754 0.03929003
0002a0 b7 4d fb bc c7 94 10 be b9 58 23 bb 95 23 5d bd
       -0.030676706 -0.14119254 -0.002492471 -0.05398901
0002b0 48 cf a3 bd 4b 35 b9 3d f0 bf d3 3d d9 a0 08 bd
       -0.0799852 0.09043368 0.103393435 -0.03335652
0002c0 aa 51 51 3d b4 fd 5b 3d c0 99 76 bd 63 81 9f bd
       0.05110327 0.053708747 -0.06020522 -0.077883504
0002d0 98 e5 74 3d 75 11 b2 3c 44 d6 b7 bd 19 7a fc 3d
       0.05978927 0.02173684 -0.08976415 0.12327976
0002e0 04 1d c2 bc e3 b9 8b 3d 4e 94 93 bc 00 d1 2a 3d
       -0.023695476 0.068225645 -0.018015053 0.041703224
0002f0 ec 84 c8 3d 29 0e fe 3c ce 9f 2a be 69 1a 21 bd
       0.09790978 0.031012611 -0.16662523 -0.039331827
000300 22 75 5e 3e 25 99 1b 3d 4e 9e 2e 3e f7 fa 9e ba
       0.2172437 0.037987847 0.17052576 -0.0012129237
000310 15 48 93 3e 21 ca 2d 3e d3 d0 28 3f 2a b9 b7 3e
       0.28765932 0.16971637 0.6594364 0.35883456
000320 a2 7d 3c 3e 63 57 1f 3e d9 bb 3a 3e d3 52 0f 3e
       0.184073 0.15560679 0.1823572 0.13996439
000330 17 17 bc bc ae 4f ad 3e 27 85 89 3e fc 03 ce 3e
       -0.022960229 0.33849853 0.268594 0.40237415
000340 7a f3 cf 3e 61 ae b8 3d fe df 72 3e f8 d2 b9 3e
       0.40615445 0.09017635 0.23718259 0.3629377
000350 b4 2b 96 3e 90 d0 8f 3e 44 d8 56 3e 3b 48 fe 3e
       0.29330218 0.28088808 0.20980936 0.49664482
000360 cb 1a ca 3e f6 2b 1f bd f4 a6 c5 3d 5c 62 43 3e
       0.39473566 -0.038860284 0.096509844 0.1908049
000370 23 26 0d 3f ca 12 81 3e b0 1b 2a 3e 9f 34 92 3e
       0.55136317 0.25209647 0.16612124 0.28555772
000380 3d 78 ca 3e c5 1a 3b 3e cc 56 b1 3e 17 f5 6f 3d
       0.3954486 0.1827193 0.34636533 0.058583345
000390 0b e8 73 3c 9a d0 fd 3e e9 ea 59 3e c0 46 a0 3d
       0.014886866 0.49573213 0.21281017 0.078259945
0003a0 59 9a 07 3a e0 ef b4 3e e5 9b a0 3e e7 c2 61 bd
       0.0005172841 0.3533926 0.31368938 -0.055117514
0003b0 53 b3 68 3e 08 c5 ca 3e c8 a1 91 3e 7a 04 c1 3e
       0.22724657 0.39603448 0.28443742 0.37698728
0003c0 ae da 3f 3e e4 b4 37 3f cd 79 c9 3e bd 49 8a 3e
       0.18735763 0.7176039 0.3935074 0.27009383
0003d0 1c 00 18 3f 82 96 98 3e f1 de 0e 3e df 84 04 3f
       0.59375167 0.29802328 0.13952233 0.51765245
0003e0 0a 6d a7 3e 36 81 07 3e e2 21 f6 3e d5 1b c5 3e
       0.32700378 0.13232884 0.48072726 0.38497797
0003f0 5f 0b 16 3e 04 41 b4 3e 8d c3 74 3e 0b b7 13 3e
       0.14652775 0.35205853 0.23902722 0.14425294

lstm.weight_ih_l1 f4 [256, 64]
000000 aa 9c b8 ba 34 ce ea be 63 af bd 3c ee 8e 3f 3e
       -0.0014084775 -0.45860445 0.02315492 0.18706867
000010 09 19 05 bf 8d a8 0a 3f 9f e5 a3 3f 07 a0 27 3f
       -0.51991326 0.5416344 1.280445 0.6547856
000020 67 b0 ae 3d 19 db 20 3f 48 66 13 3f 5b 43 48 3f
       0.0852974 0.62834316 0.57577944 0.78227776
000030 e3 87 85 be 3a 47 26 be 30 05 1f bf 5c 10 6b 3f
       -0.26080236 -0.16238108 -0.6211729 0.9182184
000040 d7 c8 c3 bd 0f bf 8b 3f 42 78 e9 be 50 77 c4 3e
       -0.095597915 1.0917681 -0.45599562 0.38372278
000050 ef 04 3b bf 04 12 6f be 3b 90 f8 be 21 1d 2f bf
       -0.73054403 -0.23346716 -0.4854754 -0.6840382
000060 af 0f 96 3d 18 bb fe 3e 00 77 85 be 72 c4 05 bf
       0.0732721 0.49752116 -0.26067352 -0.52252877
000070 9f 2d 73 be ea ec b9 3c 85 59 13 3d 87 8f 74 3e
       -0.23747872 0.022695977 0.035974044 0.23882876
000080 f2 a2 56 bf 44 40 8c be 21 cc 6d be ae 8e bb be
       -0.83842385 -0.2739278 -0.232224 -0.36632293
000090 0b ce 2e 3d 57 2a 69 3e a5 c7 db be db 96 aa 3d
       0.042676967 0.22770058 -0.42925754 0.08329555
0000a0 5c d6 1f be 41 e9 ef bf 1b 61 3f bd a1 6f b7 be
       -0.15609115 -1.8743058 -0.046723466 -0.35827354
0000b0 79 10 ea be 5c 4e 23 be 45 15 9a 3c 91 b4 69 be
       -0.45715693 -0.1594786 0.01880897 -0.22822787
0000c0 7d c9 ca be c4 ee c6 bc 87 6e a3 3e 2b d9 94 bf
       -0.39606848 -0.024283774 0.31920263 -1.1628774
0000d0 d9 32 f4 be bc b0 a6 bf 60 2e b6 bf 84 fd 20 3e
       -0.47695044 -1.3022685 -1.4232903 0.15721709
0000e0 a5 ac d5 be 4e 82 6e 3f 5d 4d 6c 3f c1 c0 f9 3e
       -0.4173328 0.9316758 0.92305547 0.48779872
0000f0 36 74 ee bd d8 34 1a 3f 86 e0 6c 3e 95 6a 24 be
       -0.11643259 0.60236883 0.23132524 -0.16056283
000100 33 ae 2d bf 57 29 84 3e a4 a0 53 be 61 21 07 bf
       -0.6784393 0.2581279 -0.20666748 -0.5278531
000110 9e 85 3b bf 7f ff 1a 3f 33 00 c8 3f 97 2d d6 3f
       -0.7325076 0.60546106 1.5625061 1.6732663
000120 bd 85 87 3c 00 b3 32 3f 45 06 28 3f d6 fb 93 3f
       0.016543264 0.6980438 0.65634567 1.1561229
000130 6f dd ea be 49 6f 9d bd 0b 61 02 bf ef 86 8f 3f
       -0.45872065 -0.076872416 -0.50929326 1.1213053
000140 c1 5c 24 3f 1f ae 85 3f 7f 0c ce be aa 36 4b 3f
       0.6420403 1.0443763 -0.4024391 0.79380286
000150 b7 38 e8 bf 64 a9 8a be e7 47 00 bf 88 dd 04 be
       -1.8142308 -0.2708236 -0.50109714 -0.12975132
000160 e4 dc e8 bd 27 a4 59 3f 5f c4 20 bf 38 9a 1a bf
       -0.113702565 0.850161 -0.6279964 -0.6039157
000170 7f f9 0e bf 5e bf 4b 3f 7e cb 4a 3f 5c 3d 9a 3f
       -0.5584945 0.7958888 0.79216754 1.2049975
000180 97 9d b7 be 0a 9a 0e bf be f8 39 bf fb f0 30 bf
       -0.3586242 -0.55703795 -0.72645175 -0.69117707
000190 4e 32 0d bf aa 6f 6b 3e ed 57 ca be 85 12 9c 3e
       -0.55154884 0.22991815 -0.39520207 0.3048288
0001a0 ac 97 13 3f 0e 13 8a bf 8d e8 6d bf 59 b9 70 bf
       0.5765331 -1.0787065 -0.9293297 -0.9403282
0001b0 09 bc bb be 8b 0f 16 3e 1d e9 80 3e 87 ec 23 bf
       -0.36666897 0.14654367 0.2517785 -0.6403279
0001c0 35 5b 21 bf dc 41 8c bf 09 a0 13 3f 7b 2e d5 bf
       -0.63029796 -1.0957599 0.5766607 -1.665481
0001d0 0d 21 0f 3f 68 42 44 bf 94 4e d8 bf 49 a0 28 3f
       0.55909806 -0.7666383 -1.689898 0.65869576
0001e0 3f 61 1e bf 67 99 7b 3e 16 37 d0 3e 6c 5c 95 bd
       -0.61867136 0.24570237 0.40667027 -0.07293019
0001f0 74 82 64 3f 23 58 1d be 5e c7 66 3e 7f b3 67 3b
       0.89261556 -0.15365653 0.2253699 0.003535479
000200 fc 5e 84 3d f3 5e 39 bd f1 d7 37 bf 80 38 06 3d
       0.06463429 -0.045256566 -0.71813875 0.032768726
000210 2b d2 eb be b7 11 82 3f 7a 7a 4e 3e 6f ef a7 3e
       -0.46058783 1.0161656 0.20163909 0.3279986
000220 03 67 71 be dd 62 a7 bc cd ff 3c 3f 24 0d fd 3e
       -0.23574452 -0.020432884 0.7382782 0.49424088
000230 19 ff 90 bd 7e ca 8d 3d 02 83 48 be 7b 32 2a 3f
       -0.07079906 0.06923388 -0.19581226 0.6648328
000240 02 b8 25 3e dc 1e c9 3e 06 c7 a9 3e e1 70 03 3b
       0.16183475 0.39281356 0.33159655 0.0020056295
000250 39 bd a0 be 47 bd 0d 3f 4e 2d 30 bf 67 fc f8 be
       -0.31394365 0.5536694 -0.6881913 -0.48630068
000260 4d a0 aa 3e 44 96 1e 3f e5 f3 55 b8 d6 58 62 bf
       0.33325425 0.6194804 -5.1010302e-05 -0.884168
000270 12 80 55 3d 66 fc b4 3d c1 d3 06 3f fb f8 c6 3e
       0.05212409 0.08837204 0.5266686 0.38861832
000280 22 55 0d bf 11 8f 41 bf 26 4a 1e 3e 3c a0 d8 3c
       -0.5520803 -0.75608927 0.15457973 0.026443593
000290 00 b6 8e 3e b0 70 4b be 05 cf b9 3e ae 1b d5 3e
       0.2787323 -0.19867206 0.36290756 0.4162268
0002a0 1f 40 a1 be 20 fb ae 3e 7c 3a 39 3f 07 07 84 be
       -0.31494233 0.34175968 0.72354865 -0.2578661
0002b0 4e 7f 54 bf e1 e7 8d bd e8 c5 fe 3e dd 45 4c bf
       -0.8300675 -0.06928993 0.49760365 -0.797941
0002c0 37 a7 6a bf f4 35 1d be 77 7a 81 be 70 b8 01 bf
       -0.916614 -0.15352613 -0.25288746 -0.50672054
0002d0 d4 f2 7e 3e 7d 2d b6 3e 87 b0 3c bf 65 5d 66 3e
       0.24897319 0.3558158 -0.7370686 0.22496565
0002e0 56 10 a7 be 95 19 d2 3e 74 bf 30 3f a4 1e 88 be
       -0.3262965 0.41035143 0.69042134 -0.26585877
0002f0 c4 89 18 bf 11 16 d0 3e 93 b3 6d bd 01 fd df 3e
       -0.59585214 0.40641835 -0.058032583 0.43747714
000300 f2 8c 22 3f 0e c0 0c bf fa d7 61 bd 46 06 31 3f
       0.63496315 -0.5498055 -0.055137612 0.691502
000310 4f 28 1e bf 4b f6 f4 3e 32 29 23 3f 4e f1 a2 be
       -0.61780256 0.47844157 0.63734734 -0.31824726
000320 b6 8c 86 bf bd db 81 be 73 61 da 3e 37 71 34 3e
       -1.0511692 -0.2536296 0.42652473 0.17621313
000330 27 d8 07 bf eb f8 ff 3e c9 c4 e9 3e 81 0f 15 be
       -0.530642 0.49994597 0.45657948 -0.14556696
000340 67 f4 8f 3e f9 03 d0 3e 47 01 d2 3d b7 6b 44 bf
       0.28116152 0.4062803 0.1025415 -0.7672686
000350 d4 9e cd 3e 79 95 09 3f 87 7d 64 be 6c 26 88 3e
       0.4016024 0.537437 -0.2231351 0.26591814
000360 c7 f1 c9 3e d9 01 1b 3e d8 28 00 3d f6 62 96 be
       0.39442274 0.15137424 0.03128895 -0.29372376
000370 bc 13 a8 be b3 84 97 be 8d 05 5b bc 82 19 97 3e
       -0.32827556 -0.2959343 -0.013368023 0.29511648
000380 df 5d dd 3d e1 1b 80 be dd 38 81 3f 9f 33 cf be
       0.1080892 -0.2502127 1.0095478 -0.4046907
000390 86 65 17 3f 93 a3 29 3e 88 14 3b 3e 77 3d da 3e
       0.5913929 0.16566305 0.18269551 0.4262502
0003a0 19 3b 4a bf bc 42 9a bf 97 cf f2 3d 11 c2 a8 3e
       -0.78996426 -1.2051616 0.11856001 0.3296056
0003b0 d6 c1 08 bf c2 86 1a 3f e8 d9 9c 3e e5 b2 b0 be
       -0.5342077 0.60361874 0.30635 -0.34511486
0003c0 29 bb 01 bf aa 53 93 3e d0 eb 1a bf fe 5d 6a 3c
       -0.5067621 0.28774768 -0.6051607 0.014304636
0003d0 1b 35 5d 3f 60 00 4e bf 9a f4 af be 92 d2 2b bf
       0.8640916 -0.8046932 -0.34366304 -0.6711818
0003e0 1a 64 84 bf fc a6 bc 3e e3 48 9b 3e e0 8d 24 3f
       -1.0343049 0.3684615 0.30329046 0.64278984
0003f0 75 d0 49 bd 57 7e 96 3f 19 4c 1d bf ed 11 3d 3f
       -0.049271066 1.1757306 -0.6144424 0.7385548

lstm.weight_hh_l1 f4 [256, 64]
000000 1c df 99 3d dc fc 26 3d a6 ad d3 bd 58 ea ca bd
       0.07513258 0.04076849 -0.10335855 -0.09907979
000010 40 1c 7a 3b 8c 75 0e bd a8 b1 39 bd 26 7c e4 3d
       0.003816381 -0.03478007 -0.04533544 0.11156492
000020 fc e9 a9 3d 40 ce 25 3d 48 56 5e 3d 5a bd b5 3d
       0.08296582 0.0404799 0.054281503 0.088740066
000030 d2 99 fb bd a0 69 88 bd 1a ba 8e 3d 72 5c d1 3d
       -0.12285198 -0.06660771 0.0696909 0.10222711
000040 fc 50 01 3d 98 9f d9 bc c6 68 83 3d 40 a2 4e 3b
       0.031571373 -0.026565358 0.06416468 0.0031529814
000050 42 da 9c 3d 3a d5 9f 3d 50 9d 39 3c a8 13 ad 3d
       0.07658817 0.078043416 0.01132901 0.08451015
000060 20 ad 08 bd 50 60 42 3c 00 24 3e 3a b2 41 be 3d
       -0.03336823 0.011863783 0.0007253289 0.09289874
000070 40 d2 cc 3c 9c 79 cc 3d 68 bf 80 bc 16 ba c7 3d
       0.025002599 0.09984133 -0.01571627 0.0975229
000080 e0 29 f5 3c ac 51 24 3d 34 de f3 3d 16 da cc bd
       0.029927194 0.04011695 0.11907616 -0.10002534
000090 80 cf 8b bb b8 74 14 3d f0 0e 0d bd bc 4e 45 3d
       -0.0042666793 0.036244124 -0.034438074 0.04817079
0000a0 26 30 91 bd 10 aa c6 bc b0 39 1a 3d ce 5e 99 bd
       -0.07089262 -0.024251014 0.03765267 -0.07488786
0000b0 70 38 37 3d e2 f3 e7 3d 6c 08 a3 3d 40 6a 12 3d
       0.044731557 0.11325814 0.07960591 0.03574586
0000c0 be ea f8 bd 88 f9 b1 3d 48 51 f9 bc b2 95 ed bd
       -0.121541485 0.086901724 -0.030434266 -0.11600818
0000d0 b0 c9 da bd a0 97 48 bd 00 14 43 39 28 22 e2 bd
       -0.10683 -0.048972726 0.000186041 -0.11041671
0000e0 b0 3f 61 bc 34 0b 6a 3d aa 6c cc bd d0 dc 5a 3d
       -0.013748094 0.05713959 -0.099816635 0.05343324
0000f0 44 54 42 3d 3c 7f 2f bd 90 53 62 bd b0 0c ed bd
       0.047443643 -0.04284595 -0.055255473 -0.115746856
000100 ee 8a 99 bd 6a 28 86 bd 60 e9 fd 3b 38 c4 44 3d
       -0.07497202 -0.06550677 0.0077487677 0.04803869
000110 dc a3 2d bd 80 a8 b3 bb 40 e9 d2 3d 30 a4 40 3c
       -0.042392597 -0.0054827332 0.10298395 0.011757895
000120 84 30 0c 3d 6e ae b6 bd 30 a8 33 3d f0 aa 10 3d
       0.034225956 -0.089199886 0.043861568 0.03531927
000130 d0 2d bc bd a8 1c 1e 3d 60 20 08 bc 28 e6 d6 bd
       -0.091884255 0.038601547 -0.0083085 -0.104931176
000140 f0 5a 4b bd 78 2f 58 bd f8 bb 66 bd 54 e2 7e 3d
       -0.04964727 -0.052779645 -0.056331605 0.062227562
000150 90 7c 15 3c 40 1b a1 3d c0 18 60 bc 44 f2 08 3d
       0.009123936 0.07866526 -0.013677776 0.033434168
000160 f0 79 39 3c d8 ae 7a bd 30 d9 b2 3d 10 96 ed 3d
       0.011320576 -0.0612019 0.087328315 0.11600888
000170 88 5d f6 bd b4 20 d5 3d 3c 8c ce 3d ca ed ee bd
       -0.120295584 0.10406628 0.10085341 -0.116664484
000180 9c d1 1b bd e8 a6 c4 bd c4 26 79 3d a0 50 e6 3c
       -0.038041696 -0.09602147 0.060827985 0.028114617
000190 60 50 5d 3d b2 9d cf bd 7e a8 d3 bd 44 de 3d 3d
       0.05403173 -0.101375 -0.10334872 0.046354547
0001a0 20 16 85 bb 3a 12 e2 3d c2 47 b9 bd d8 bb b8 bc
       -0.0040614754 0.11038633 -0.0904689 -0.022550508
0001b0 20 cf 77 bc f4 f2 fd bd 08 80 ed bd 50 8f 3d 3d
       -0.015125066 -0.12399855 -0.11596686 0.04627925
0001c0 50 98 8f 3c 4a 18 a0 bd cc cb 7b bd 18 d5 6b 3d
       0.017528683 -0.07817133 -0.061473653 0.05757627
0001d0 bc ef 74 bd 76 3a a3 3d c4 30 b8 3d 78 36 92 bc
       -0.05979894 0.07970135 0.08993676 -0.017848238
0001e0 08 6f 8a bc 80 97 c7 3c 90 10 f0 3d 58 11 a5 3d
       -0.016898647 0.024364233 0.11721909 0.08059949
0001f0 b2 be df bd 18 38 6e bd c0 71 42 3c 60 01 4f bc
       -0.10925044 -0.058158964 0.01186794 -0.012634605
000200 10 3a 45 3d fa c6 93 bd 28 4a 81 3c c8 72 72 bd
       0.048151076 -0.07215686 0.01578243 -0.059191495
000210 f6 ec 8f bd d4 5e 77 bd 06 cf cd bd 48 cb 46 bd
       -0.070276186 -0.06039317 -0.10049252 -0.048533708
000220 36 e6 93 bd 60 3e 60 bd 50 3a 45 3c 64 49 61 bd
       -0.072216436 -0.054746985 0.012037829 -0.05500163
000230 6a 21 dc bd 4c 4a 9f 3d fc 53 b0 bd 2c 01 26 bd
       -0.10748561 0.07777843 -0.08609769 -0.04052846
000240 c0 40 19 3d e0 09 67 bc 76 b9 a7 bd 3c 2a da 3d
       0.037415266 -0.0141014755 -0.08189671 0.10652587
000250 28 a3 75 3d 58 c8 ec bd 64 b2 3f bd 64 42 bc bd
       0.05997005 -0.1156165 -0.046800986 -0.091923505
000260 5c 17 8c bd 9c ca e9 bd c0 9d 3c 3b 50 6e 05 bc
       -0.06840393 -0.11415598 0.002878055 -0.008143976
000270 90 99 55 3d 50 38 18 bd 88 c7 08 3d 6a b3 9d bd
       0.0521484 -0.03716308 0.033393413 -0.07700236
000280 80 6e e2 bb 96 a5 cb bd c0 e1 86 3d 74 b7 1a bd
       -0.0069101453 -0.099436924 0.06586027 -0.03777261
000290 0c 33 92 3d 3a 24 ac bd 84 60 ee 3d 84 58 87 3d
       0.07138643 -0.08405347 0.11639503 0.0660868
0002a0 c0 69 f3 3b 7c 8d d7 3d 50 18 61 3d e2 fa 98 bd
       0.007428378 0.10525033 0.054954827 -0.07469727
0002b0 80 62 9f bd 12 78 cc bd c4 d0 bc 3d 30 9b 3c bc
       -0.07782459 -0.09983839 0.092195064 -0.011511609
0002c0 f2 36 c7 bd c0 a0 34 bd 5a 73 e6 3d 54 b1 74 bd
       -0.09727277 -0.044098616 0.1125247 -0.059739426
0002d0 ba 5b f6 bd 00 76 89 b9 20 34 40 3c 5e 5f d0 bd
       -0.12029214 -0.00026218593 0.011731178 -0.1017444
0002e0 40 83 c9 bb c4 74 4e 3d 90 d6 bc 3d c4 d2 98 3d
       -0.0061496794 0.050404325 0.09220612 0.07462075
0002f0 3e 15 a2 3d 00 e9 33 3c 52 fa 8e 3d 10 1d 19 3d
       0.07914208 0.0109808445 0.069813386 0.03738123
000300 a8 15 df 3d 30 07 6f 3c 1c 80 8b bd 04 d0 ff 3d
       0.108928025 0.014589116 -0.06811544 0.12490848
000310 ca b5 ed 3d 70 20 de 3c 32 dd a6 bd 00 84 22 b9
       0.11606939 0.027115077 -0.081476584 -0.00015498698
000320 00 db fd 3b b8 1d cb 3d 7c ee 12 3d 76 93 dd bd
       0.007747054 0.09917778 0.035871968 -0.108191416
000330 9a ec a1 3d 72 95 d9 3d ac bb df bd 08 6d 92 bd
       0.07906456 0.106242076 -0.109244674 -0.07149702
000340 20 be 6e 3c 18 71 e9 3c 10 73 0a 3c d0 cc 59 bd
       0.0145716965 0.02849631 0.008450285 -0.05317384
000350 f4 aa 2b bd dc fa 5f bd a0 a0 ee 3b f0 8e cf 3c
       -0.04191108 -0.054682598 0.0072823316 0.025336713
000360 90 05 45 bc c8 1a 24 3d a0 fe 8f 3b 96 de f9 bd
       -0.012025252 0.040064603 0.0043943673 -0.12200658
000370 90 f4 18 bd 28 e7 4c 3d f0 b9 10 bd 2c e2 0b 3d
       -0.037342608 0.050025135 -0.035333574 0.03415124
000380 90 c5 13 3d 2c 5d 2d bd 08 ae f5 bc 3c a5 0a 3d
       0.036077082 -0.042325184 -0.029990211 0.033848986
000390 b6 3b e6 bd 14 0e e0 3d ac 17 8e 3d 94 04 0a 3d
       -0.11241858 0.10940185 0.06938109 0.033695772
0003a0 a6 40 93 bd 94 86 f0 3d 88 7b d1 bd c0 dd 00 bc
       -0.07190065 0.11744419 -0.1022864 -0.007865369
0003b0 60 6f dd bb 30 76 42 bc 4c 86 23 3d 6c 38 45 3d
       -0.0067576617 -0.011868998 0.039922997 0.04814951
0003c0 00 8e 47 3c c0 f5 e9 bc 16 2c e2 bd 60 07 09 bd
       0.0121798515 -0.028559566 -0.11043565 -0.0334543
0003d0 3c 7a 37 bd e0 21 23 3d f4 16 fd 3d b8 a1 9b 3d
       -0.044794306 0.039827228 0.123578936 0.07599205
0003e0 c0 8d f7 bd f8 0b 36 bd fc 93 7b bd 7a 66 d7 bd
       -0.120875835 -0.044445008 -0.061420426 -0.10517593
0003f0 c4 ec 7c bd 64 8e 32 3d 9e 96 ef bd 18 1f 84 bd
       -0.061749235 0.043592826 -0.1169865 -0.06451243

lstm.bias_ih_l1 f4 [256]
000000 64 c2 19 3f c6 a2 2f 3f d5 e8 3f 3f 3a eb b3 3e
       0.6006224 0.6860775 0.7496465 0.351404
000010 e8 9e 1b 3f 40 19 1b 3d 98 67 f6 3e b7 9f 71 3f
       0.60789347 0.037865877 0.4812591 0.9438433
000020 1a 1f e1 3e ac bd ae 3e 08 2b 50 3f cf 8e 8e 3f
       0.4396904 0.34129083 0.8131566 1.1137332
000030 d5 d4 bd 3e 7f f8 29 3f b9 73 e8 3e 43 eb 89 3e
       0.3707644 0.663948 0.4540079 0.26937303
000040 ac 3d d4 3e 46 ca cf 3e 96 bc e7 3e 67 82 12 3f
       0.41453302 0.4058401 0.45261067 0.5723023
000050 60 b4 ce 3d 58 7e 2f 3f ec 0e e7 3e 9c f2 22 3f
       0.100929976 0.6855216 0.45128572 0.6365144
000060 35 7b 15 3e d6 99 f5 3e 14 e3 76 3f c0 7a 70 3e
       0.14597781 0.4796893 0.96440244 0.23484325
000070 24 d5 04 3f 7d 24 66 3d 30 f7 f0 3e 69 ae 80 3f
       0.51887727 0.05618714 0.4706359 1.0053226
000080 e7 db de 3e cb 1d 97 3e 2b ae 0c 3f bd 04 3a 3e
       0.43527147 0.29514918 0.5495326 0.1816587
000090 16 35 cc 3e 8d c3 08 3f 2d 84 9b 3f f4 5a 8c 3e
       0.3988425 0.53423387 1.2149712 0.27413142
0000a0 36 8e 9e 3e 26 7f 05 3f 3e 16 c4 3e 21 4a 7d 3e
       0.30967873 0.5214714 0.3829822 0.24735309
0000b0 84 03 8c 3e 5c af 1f 3f 4c 23 07 3f 61 dd 5e 3f
       0.27346432 0.6237695 0.52788234 0.8705655
0000c0 63 28 90 3e 04 a7 07 3f e5 c7 ff 3e d0 cc 2f 3e
       0.28155813 0.5298922 0.49957195 0.17167974
0000d0 ad f9 f1 3e 98 38 03 3f 85 ad c0 3e 8f d0 9d 3e
       0.472608 0.5125823 0.37632385 0.3082318
0000e0 d4 ba cc 3e 5d 7d 10 3f 68 57 23 3f 91 57 5c 3e
       0.3998629 0.5644129 0.63805246 0.21517779
0000f0 7d 61 0a 3f e7 02 00 be 67 9a 0e 3f 00 00 71 3e
       0.54055005 -0.12501107 0.5570435 0.23535156
000100 a8 64 83 3d 00 fe ad b9 28 2b d8 3d 5a 06 ea 3d
       0.06415683 -0.00033186376 0.105551064 0.11426993
000110 b8 13 e9 bd 50 fb a0 bc 4c 30 20 3d 4a 42 fa bd
       -0.11380714 -0.019651085 0.03910856 -0.12219675
000120 50 47 c7 bc 8c 54 8f 3d c0 01 4f 3b a6 82 9a 3d
       -0.024325997 0.06998548 0.0031586736 0.075444505
000130 ac 8b 87 3d 9e 97 bb bd 64 bf 1a bd 88 24 80 bd
       0.06618437 -0.09159778 -0.03778018 -0.06256968
000140 d0 58 96 bd c0 49 42 3d 44 7e 40 3d 78 07 de bc
       -0.073411584 0.047433615 0.046995416 -0.02710317
000150 70 d2 5d bd c0 08 26 bc 36 ce fa 3d 8e 82 9e bd
       -0.054155767 -0.010133922 0.12246363 -0.07739745
000160 60 61 d9 bc da f9 b6 3d d6 c0 8d bd ec f7 7d bd
       -0.02653569 0.08934374 -0.06921546 -0.062004015
000170 38 01 24 bd 30 c5 7d 3c aa a3 f3 3d cc a2 16 bd
       -0.040040225 0.015488908 0.11896451 -0.03677635
000180 04 d6 a7 3d 2a dd e7 3d 30 63 2c 3c 84 18 4b bd
       0.08195117 0.113214806 0.010521695 -0.049583927
000190 9c da a5 3d b4 b6 85 3d 6e df db 3d 20 cf e2 3d
       0.08098337 0.065289885 0.10735975 0.11074662
0001a0 48 6c 9f 3d 08 19 a5 bd 90 09 eb bc da 3c b6 3d
       0.07784325 -0.08061415 -0.028691083 0.08898325
0001b0 30 ac b5 bd 5a 21 ca 3d be b7 b0 bd a8 ca c5 bd
       -0.08870733 0.098696426 -0.08628796 -0.09657794
0001c0 24 3e ad 3d 40 74 d2 bc 38 01 80 3d 8c 05 6f 3d
       0.08459118 -0.025690198 0.062502325 0.0583549
0001d0 96 63 a6 bd 64 d2 cf bd 94 9f ae 3d ac 58 47 bd
       -0.08124463 -0.10147551 0.08526531 -0.04866855
0001e0 36 ca c5 bd e0 ed 24 3d 24 8f 77 bd 00 52 86 39
       -0.09657709 0.040265918 -0.060439244 0.00025619566
0001f0 c0 c0 21 bb ec da 03 3d 16 82 c1 3d f4 fa ec 3d
       -0.0024681538 0.032191202 0.0944864 0.11571303
000200 f6 94 2b 3e f6 2b 29 bd a1 72 fb 3c 52 23 ce 3c
       0.16756043 -0.04130169 0.030694308 0.025163326
000210 19 64 9f 3d fb 40 93 bd 29 c9 7d bd 81 4a af bd
       0.07782764 -0.071901284 -0.06195942 -0.08559132
000220 72 b9 7b bc a7 96 3b be 54 96 b5 3d b6 9d 76 3d
       -0.015364038 -0.18319188 0.088665634 0.060209
000230 6d d1 7e 3d de b5 d4 3d 94 34 73 3d 7d 2f 03 3c
       0.062211443 0.10386251 0.059376314 0.008006928
000240 57 d5 c5 3d 86 3c a6 bd ae c8 4c 3d d7 75 6d bd
       0.09659832 -0.08117013 0.04999607 -0.05797371
000250 23 63 08 3e 01 52 c6 3c da f7 be 3c 9b f4 0b 3e
       0.13319068 0.024209024 0.023311544 0.13667528
000260 cf a9 d9 bd c4 8c a3 3d 8c 9b a7 bd 7a 50 64 bd
       -0.106280915 0.07985833 -0.08183965 -0.05574081
000270 7c ed 43 3d ea 6f 0d 3d f8 d8 dd bb 81 ad 05 3e
       0.047833905 0.034530558 -0.0067702495 0.13054468
000280 09 37 87 bd 91 d5 3d be d2 ed 0a 3e 94 f3 8f 3d
       -0.06602294 -0.185385 0.13567284 0.07028881
000290 d9 77 3d 3e 8f 0d d6 bd 08 ba 1f bd 7f 6e d4 bd
       0.1850275 -0.10451805 -0.038995773 -0.10372638
0002a0 6d 40 87 3d fa 27 13 3e aa be db 3c 11 0e 9f 3d
       0.06604085 0.14370719 0.026824314 0.07766355
0002b0 a3 2a 86 3d 4d 2f 8e be ca 8e 02 be 07 a3 4d 3d
       0.06551101 -0.27770463 -0.12749782 0.050204303
0002c0 6f 85 53 bd 38 a6 0e bd b9 a9 27 3b b2 a7 88 3d
       -0.051640924 -0.034826487 0.002558334 0.0667261
0002d0 74 c9 33 3d 29 7f 25 be 16 43 42 be c2 b0 f6 b8
       0.043893293 -0.16161789 -0.18970904 -0.00011763118
0002e0 a2 29 f8 bd 54 87 d5 bd 1c 4a 27 3d 98 a6 86 bd
       -0.12117316 -0.104262024 0.04084216 -0.06574744
0002f0 a0 29 30 3e a5 11 77 bd 18 c1 61 3e 8d e0 15 be
       0.17203379 -0.06031956 0.22046316 -0.1463644
000300 c6 6a af 3e 25 09 b0 3e e9 43 d0 3e 9b ba c4 3e
       0.3426115 0.34381977 0.4067681 0.3842362
000310 7d 3a 13 3f de 4a 18 3e a2 dc 83 3e ce bc 30 3f
       0.5751112 0.1487231 0.25754267 0.69038093
000320 d5 7f ca 3e 24 dc d6 3e 95 32 4e 3f db 14 01 3f
       0.39550653 0.4196483 0.8054593 0.5042245
000330 b9 db 81 3e e8 b6 c3 3e 46 d3 18 3e 84 5b 8a 3e
       0.25362948 0.38225484 0.14924344 0.27022946
000340 3f 41 96 3e 1f 26 d3 3e 35 90 e3 3e e7 ee 40 3e
       0.29346654 0.41240022 0.4444596 0.18841134
000350 da f7 e5 3d d7 98 8e 3e 5e ec f6 3e 87 55 60 3e
       0.112289146 0.27850983 0.4822721 0.21907626
000360 47 93 01 3f 35 c7 6b 3e 38 86 0a 3f bd 37 fd 3e
       0.5061535 0.2302521 0.5411105 0.49456587
000370 05 13 44 3f f2 bb 2a 3e dd da c3 3e 15 df 45 3f
       0.7659152 0.16673258 0.38252917 0.7729352
000380 22 21 d8 3e 1c 90 97 3e ca 0a 7f 3e d2 3a e6 3e
       0.42212778 0.29602134 0.2490646 0.4496675
000390 56 df a7 3e 58 2d 81 3e 43 74 13 3f 80 75 a9 3e
       0.3278758 0.25229907 0.57599276 0.33097458
0003a0 67 6f c0 3e bf 45 72 3e d9 a5 13 3f 40 92 92 3e
       0.37584993 0.23659419 0.5767494 0.28627205
0003b0 59 df 1b bd 46 e1 81 3e 9f 83 93 3e 71 06 5e 3e
       -0.038054798 0.25367182 0.28811356 0.21682145
0003c0 58 23 a0 3e dc 58 a8 3e 27 53 07 3f 98 58 3a 3e
       0.31276965 0.32880294 0.52861255 0.18197858
0003d0 a4 54 0a 3e eb b2 b7 3d c5 41 37 3e 30 de 9f 3e
       0.1350885 0.08969673 0.17896183 0.31224203
0003e0 94 90 5f 3e 8d d9 0e 3f 0a 68 08 3f c3 99 88 3e
       0.21832496 0.55800706 0.5328375 0.2667981
0003f0 6d a8 d4 3e ca 19 4d 3d b5 12 7a 3e 57 b6 3e 3e
       0.4153475 0.050073422 0.24421199 0.18624245
